model.haiku.pt (torch, 333278 bytes, 110 tensors)

weight f4 [108, 32]
0	0xbea80712	-0.32817894
1	0xbf1ab3e7	-0.6043076
2	0xbfc0114d	-1.500528
3	0xbeb8f20d	-0.3612217
4	0xbff884e5	-1.9415556
5	0x40044811	2.0668986
6	0xbe7b08d2	-0.24515083
7	0x3fa10bae	1.2581689
8	0xbd86ee03	-0.06588366
9	0x3fda1d59	1.7040206
10	0xbfdb6933	-1.7141479
11	0x3eeee6f9	0.46660593
12	0xbe2f4ae0	-0.17118406
13	0xbfbf6a81	-1.4954377
14	0xbf0672c8	-0.5251889
15	0xbeab0e49	-0.33409336
16	0x3f46053f	0.77351755
17	0xbe2cd88a	-0.16879478
18	0x3ee4e496	0.44705647
19	0xbf264f05	-0.64964324
20	0x3f458484	0.7715533
21	0xbf694df6	-0.91134584
22	0x3f179a85	0.59220153
23	0x3e736500	0.23768997
24	0x3f859f1b	1.043918
25	0x3e8022d2	0.25026566
26	0x3f3c25d9	0.7349525
27	0x3e8d2e02	0.27574164
28	0x3f2fd0eb	0.6867816
29	0xc0003f4f	-2.003864
30	0x3e46d231	0.19416119
31	0xbfb1ec21	-1.3900186
32	0x3f00f43f	0.5037269
33	0x3f516842	0.8179971
34	0x3f7fbb2b	0.9989497
35	0xbb8c0e2e	-0.0042741513
36	0x3f3a5a24	0.72793794
37	0xbeecb595	-0.46232286
38	0x3f79a822	0.97522175
39	0x3f64d04e	0.8938035
40	0x3fb7ce82	1.4359896
41	0x3fa2cbc3	1.2718433
42	0xbfc14f94	-1.510241
43	0x3f5eedad	0.87081414
44	0x3fa33af4	1.2752366
45	0x3f83a88f	1.0285815
46	0xbf00c9f9	-0.50308186
47	0xbed64f69	-0.4185746
48	0x3f4cd9df	0.80019945
49	0x3fd59491	1.6685964
50	0xbd3ba075	-0.04580732
51	0x3ef7db0e	0.48409313
52	0xbea69926	-0.32538718
53	0x3d5f0315	0.0544463
54	0xbfba511d	-1.4556004
55	0x3f2b350c	0.6687782
56	0xbf58349b	-0.8445527
57	0xbfa9ff79	-1.3281089
58	0x3f2c736b	0.67363614
59	0x3f5cefce	0.8630341
60	0xbe4eb131	-0.2018478
61	0x3d84b25e	0.06479333
62	0xbdd27034	-0.10275307
63	0xbe6a5534	-0.22884065
64	0xbeb1735d	-0.34658328
65	0x3f2702a7	0.6523842
66	0x3fa00f4d	1.250467
67	0x3ed7d971	0.42158082
68	0x3f3b66c3	0.73203677
69	0x3f7077cd	0.939328
70	0x3f32b413	0.6980602
71	0xbfc54418	-1.5411406
72	0xbee6b5ce	-0.4506058
73	0x3e8125ec	0.25224245
74	0x3de1f7e9	0.11033613
75	0x3f92f84e	1.1482027
76	0x3ffffe2d	1.9999443
77	0x3fcb44a9	1.5880328
78	0x3fed384f	1.8532809
79	0x3fa690c0	1.3012924
80	0x3eb4e10d	0.3532795
81	0xc00bdbf5	-2.1853
82	0x3e112b71	0.14176728
83	0xbfadf8e5	-1.3591582
84	0xbfbbc4f7	-1.4669484
85	0xbe868b84	-0.26278317
86	0xbf126b98	-0.57195425
87	0x3d99829e	0.074956164
88	0xbe3454d6	-0.17610487
89	0x3e45b74b	0.19308202
90	0xbf6d70f2	-0.92750466
91	0xbd8b4c52	-0.06801666
92	0x3f8c426e	1.0957773
93	0x3d27a7aa	0.04093138
94	0x3f7f6671	0.9976569
95	0x3eb3583b	0.35028252
96	0x3e587073	0.21136646
97	0x3e9f718c	0.31141317
98	0x401373d3	2.3039443
99	0x3efd305d	0.4945096
100	0x3f2b9501	0.67024237
101	0x3ee45439	0.44595507
102	0xbf8ff536	-1.1246707
103	0x3e3916b4	0.18075067
104	0xbf922088	-1.1416178
105	0x3f504e08	0.81369066
106	0x3f833f4d	1.0253693
107	0x3f516dc9	0.81808144
108	0x3e5671d0	0.20941854
109	0xbfd3d320	-1.6548805
110	0xbf5913fb	-0.8479611
111	0xbf0dad20	-0.5534229
112	0x3eca0b36	0.39461678
113	0xbf958bc2	-1.1683276
114	0x3d815e39	0.063168
115	0xbf08f530	-0.53499126
116	0xbe709bb4	-0.23496896
117	0x3ead429b	0.33839878
118	0xbe1987fe	-0.14993283
119	0x3e37d329	0.17951645
120	0xbfa311a0	-1.2739754
121	0xc0339dd4	-2.806508
122	0x3fd0e215	1.6318995
123	0x3ed77800	0.4208374
124	0x3e9532e3	0.29140386
125	0x3f9e0b42	1.2347186
126	0xbf587cc0	-0.84565353
127	0x3fabddbd	1.3427044
128	0x3e74ba0d	0.23899098
129	0xbf9d3551	-1.2281896
130	0x3f237cad	0.63862115
131	0x402f360a	2.7376733
132	0x3f4e43f3	0.8057243
133	0x3f8823b5	1.0635897
134	0x3e836cf8	0.25669074
135	0xbeccd019	-0.40002516
136	0x3f0f6ff5	0.5603021
137	0xbe756798	-0.23965299
138	0x4021ec59	2.5300505
139	0xbf25067f	-0.6446304
140	0xbf2ccda3	-0.67501277
141	0xbf3d0e7e	-0.7385024
142	0xbfaf138a	-1.3677838
143	0x3f9e9f39	1.2392341
144	0xbf211a05	-0.6293033
145	0x3fb070d9	1.3784438
146	0xbe2d87d6	-0.16946349
147	0x3e9ea3da	0.30984384
148	0xbfab4dce	-1.3383119
149	0xbee3a430	-0.44461203
150	0xbf95b007	-1.1694344
151	0x4010e0e8	2.2637272
152	0x3e908a22	0.28230387
153	0xbf1efcd4	-0.62104535
154	0xbeddc6b9	-0.43315676
155	0xbf668ab7	-0.9005541
156	0x3da4d190	0.080477834
157	0x3e0b1ed7	0.13585983
158	0xbe75f629	-0.24019684
159	0xbce78a72	-0.028264258
160	0xbf3c75d3	-0.73617285
161	0x3e023308	0.1271478
162	0x3f3c5f13	0.7358257
163	0x3da450a0	0.080231905
164	0x3f4f0a8a	0.80875456
165	0x3d5e3de6	0.05425825
166	0xbf10a066	-0.5649475
167	0x3f1d0d8b	0.6134879
168	0xbf867d57	-1.0507001
169	0x3f37bb42	0.7177011
170	0x3f8c88eb	1.0979284
171	0x3f877eb2	1.0585539
172	0x3f3dba25	0.7411216
173	0xc0144e20	-2.3172684
174	0x3e6c3161	0.23065712
175	0x3e2842c8	0.16431725
176	0x3ef50b9c	0.4786042
177	0xbf9eb6cb	-1.2399534
178	0xbecfdc91	-0.40597966
179	0xbec41674	-0.3829838
180	0x3ed9a191	0.42506078
181	0xbfb0e2bc	-1.3819194
182	0x3e0af9eb	0.13571899
183	0xbf3438e7	-0.70399326
184	0xbec836e3	-0.39104375
185	0xc0023ef5	-2.0350926
186	0x3fd8b9f3	1.6931747
187	0x3f9ae396	1.2100704
188	0x3f1b7e15	0.6073926
189	0x402625d3	2.5960586
190	0xbf4ec4ba	-0.8076893
191	0x3f94b628	1.161809
192	0xbc1512d0	-0.0090987235
193	0xbf025495	-0.5091031
194	0x3fb8a184	1.4424291
195	0x3e3d138e	0.18464491
196	0xbd0218de	-0.031761996
197	0xbef16bb3	-0.4715248
198	0x3e821df0	0.25413465
199	0xbe4375e2	-0.19087937
200	0x3e62973b	0.22128002
201	0x3f1451fc	0.579376
202	0xbe73d74e	-0.23812601
203	0xbf50e75d	-0.8160303
204	0xc005d5b3	-2.0911682
205	0x3f0a6a0a	0.5406805
206	0x3c01cf49	0.007922956
207	0x3eca69dd	0.39533892
208	0x3f1f07e3	0.6212141
209	0xbceaf7ee	-0.028682675
210	0x3f611b1d	0.87931997
211	0x3fa260e1	1.2685815
212	0x3f8d615d	1.1045338
213	0xc02405d7	-2.5628564
214	0x3f26f586	0.6521839
215	0xbdea8a9e	-0.114522204
216	0x3fa22b1e	1.2669408
217	0x3eab0c98	0.33408046
218	0x3f1c90c7	0.6115841
219	0xc0065aa0	-2.0992813
220	0x3fae266a	1.3605473
221	0x3f017a89	0.505776
222	0xbee6dbac	-0.4508947
223	0x3f20e571	0.628501
224	0x3d6ffc63	0.058590304
225	0xbf61e190	-0.88234806
226	0xbe92a817	-0.28643867
227	0xbe0b0435	-0.13575824
228	0x3e9bb40c	0.30410802
229	0x3f43de02	0.7651063
230	0x3f728ab9	0.94742924
231	0x3ec18d8d	0.37803307
232	0xbfcbaab3	-1.5911468
233	0xbe3ba798	-0.1832565
234	0xbe6d7893	-0.23190527
235	0xbe0aa1f7	-0.13538347
236	0x3db1e8ce	0.08686982
237	0x3e3b018b	0.18262307
238	0xbece8bb5	-0.40340963
239	0xbee25986	-0.44208926
240	0xbe350efe	-0.176815
241	0x3fa0205f	1.2509879
242	0xbf78c439	-0.9717441
243	0xbfc58bc2	-1.5433276
244	0xbf2a7a27	-0.6659264
245	0xbfcb5698	-1.5885801
246	0x3f15a73a	0.5845829
247	0x3f096b6c	0.5367954
248	0xbcdaa473	-0.026689744
249	0x3f8081ec	1.0039649
250	0x3f99aace	1.200525
251	0x3fdef643	1.7418903
252	0xbe81819f	-0.25294206
253	0x3fa27616	1.2692287
254	0xbd7eaf8a	-0.062179126
255	0xbd051f84	-0.03250076

weight f4 [10, 32]
0	0xbecb0051	-0.3964868
1	0x3fb7d98f	1.4363269
2	0x3fcb418c	1.5879378
3	0xbec4730c	-0.38369024
4	0x3f980302	1.1875918
5	0xbe55f9bc	-0.20896047
6	0xbf423df9	-0.7587581
7	0x400a28cf	2.1587408
8	0x3f9606b8	1.17208
9	0xbfbdbd52	-1.4823401
10	0x3c27b8c1	0.01023692
11	0xbff9e516	-1.9523036
12	0xbf7d917b	-0.9905011
13	0x3f20f49c	0.62873244
14	0xbe21ea79	-0.158121
15	0x3fb3c64c	1.404489
16	0xbf6fa3da	-0.9360939
17	0x3ea71b52	0.3263803
18	0x3de812bf	0.113317005
19	0x3fac28c4	1.3449941
20	0xbf75f604	-0.96078515
21	0xbfdd4f67	-1.7289857
22	0xbfe4b6d9	-1.7868301
23	0x3fc1c54a	1.5138333
24	0xc015ba1e	-2.3394847
25	0xbee43ffc	-0.44580066
26	0x3dc18613	0.09449401
27	0x3e8dcb83	0.2769433
28	0xbf23b2d4	-0.63944745
29	0x3f2578f5	0.6463769
30	0xbf96f2de	-1.1792867
31	0xbfd24d90	-1.642992
32	0x3d59ae26	0.053144597
33	0x3f386837	0.7203402
34	0x3eb4c462	0.35306078
35	0xbd2be60c	-0.041967437
36	0x3e200571	0.15627076
37	0xbfae717c	-1.3628383
38	0xbf367fac	-0.7128856
39	0x3e61cacd	0.22050019
40	0x3f622b8a	0.88347685
41	0xbfb780b8	-1.4336157
42	0x3f2bb393	0.67070884
43	0xbf820e8f	-1.0160693
44	0xbeef354c	-0.4672035
45	0x3f4eefee	0.80834854
46	0x3f606b0f	0.8766336
47	0x3e297da5	0.16551836
48	0xbf0f9a79	-0.5609508
49	0x3e923070	0.2855258
50	0x3e5db595	0.216513
51	0x3e7c2621	0.2462392
52	0xbfcb38cb	-1.5876707
53	0x3f153d55	0.5829671
54	0xbf91693e	-1.1360242
55	0x3f06b842	0.52624905
56	0xbf60f82d	-0.87878686
57	0xbd2c797f	-0.042108055
58	0x3f3fd994	0.7494137
59	0xbf65f5e0	-0.898283
60	0x3eae1ac9	0.3400481
61	0x3f1458a2	0.5794774
62	0xbed12f18	-0.40856242
63	0xbe933473	-0.28750953
64	0x3d9f7aa0	0.07787061
65	0x3f343b8f	0.7040338
66	0xbd97e4ca	-0.07416685
67	0x3ea0088a	0.31256515
68	0xbe12cdb4	-0.14336282
69	0xbe2fa294	-0.17151862
70	0x3e16fc7d	0.14744754
71	0xbcc606bd	-0.024173135
72	0x3f1214ae	0.57062805
73	0xbf855e86	-1.0419471
74	0x3cd4d6dc	0.02598136
75	0xbf1f5fca	-0.6225554
76	0xbdda3342	-0.10654308
77	0x3e413927	0.18869458
78	0x3f24048e	0.6406945
79	0xbf4395d1	-0.76400477
80	0xbe9d4cc1	-0.3072262
81	0x3ef08f39	0.4698427
82	0xbecf8108	-0.4052813
83	0x3e875090	0.26428652
84	0xbeba6d48	-0.364115
85	0xbd13737f	-0.035998818
86	0xbf8e8fcd	-1.1137635
87	0x3f67ea76	0.90592134
88	0xbfa428c2	-1.2824938
89	0x3e116e46	0.14202222
90	0x3dc17b17	0.09447306
91	0xbf320c57	-0.6955008
92	0x3ea19cd4	0.31564963
93	0x3f263b48	0.64934206
94	0xbdd8a230	-0.1057781
95	0x3f02a788	0.5103688
96	0x3c7589b0	0.014986441
97	0x3f11919e	0.5686282
98	0xbeb987a3	-0.36236295
99	0xbb71275a	-0.0036797137
100	0x3e211db6	0.1573399
101	0xbef7f5f5	-0.48429838
102	0xbeb70a15	-0.3574988
103	0xbe5d1179	-0.21588697
104	0x3f3cb871	0.73718935
105	0xbf267b72	-0.6503211
106	0x3db40569	0.087900944
107	0x3d40d837	0.0470812
108	0xbe3c28f5	-0.18374999
109	0x3ee960c8	0.4558165
110	0x3f2299fd	0.6351622
111	0xbeac9096	-0.3370406
112	0x3dfe0091	0.12402452
113	0x3e6774ff	0.22603224
114	0xbdd51e67	-0.104061894
115	0xbe609e67	-0.21935426
116	0xbf27ce04	-0.6554873
117	0x3eda8b57	0.42684433
118	0xbe6e22a9	-0.2325541
119	0x3ea78c0c	0.32724035
120	0xbf07086d	-0.5274723
121	0x3ed5cd00	0.41757965
122	0x3ed610dd	0.4180974
123	0xbf0df6fd	-0.55455
124	0x3ee6eb07	0.45101187
125	0x3eb9c830	0.36285543
126	0xbed57e03	-0.41697702
127	0x3f099a34	0.5375092
128	0x3e4b5df1	0.19860055
129	0x3ecc6487	0.39920446
130	0xbec8ddb8	-0.39231658
131	0x3d1e55b4	0.03865595
132	0x3e2e7c82	0.17039683
133	0xbf08e232	-0.53470147
134	0xbe46adfe	-0.1940231
135	0x3e722807	0.23648082
136	0x3e8ca237	0.2746751
137	0xbba27b83	-0.0049585714
138	0x3e2604a1	0.16212703
139	0xbe40dcac	-0.1883418
140	0xbde252b9	-0.11050934
141	0x3da2afff	0.07943725
142	0x3e92e19b	0.28687748
143	0x3e7177ab	0.23580806
144	0x3d5a223a	0.053255297
145	0x3e64f74e	0.22359964
146	0xbed9aae4	-0.42513192
147	0xbf201384	-0.6252978
148	0xbf6174b6	-0.8806871
149	0x3e93184c	0.28729475
150	0x3d8d1936	0.06889574
151	0xbe22ecbb	-0.15910618
152	0x3c737839	0.014860206
153	0x3e08941a	0.13337746
154	0x3e9ced86	0.30649966
155	0xbf07a4be	-0.5298575
156	0x3d9099d2	0.07060589
157	0x3eb25a6f	0.3483462
158	0xbe83fb80	-0.25777817
159	0x3e95c1da	0.2924946
160	0x3e3f38fd	0.18674083
161	0x3e4a40c4	0.19751269
162	0xbeb76630	-0.3582015
163	0xbe9d6a25	-0.30745044
164	0xbf819e70	-1.0126476
165	0x3dd30f41	0.10305644
166	0x3d975418	0.073890865
167	0xbe1bb2b0	-0.15204883
168	0x3ea71c97	0.32639
169	0x3e344de6	0.17607841
170	0xbeadc7b5	-0.33941427
171	0x3da19e72	0.07891549
172	0x3dcaf0b0	0.09909189
173	0xbd76064a	-0.06006459
174	0xbc533128	-0.012890138
175	0xbf47c9d7	-0.7804236
176	0x3d1e04ac	0.038578674
177	0xbed72526	-0.4202053
178	0x3df78497	0.120858364
179	0xbf0ec2a0	-0.55765724
180	0x3e907d76	0.2822072
181	0xbd459ee6	-0.04824724
182	0xbe487bb7	-0.19578443
183	0x3ed09a3a	0.40742666
184	0xbe3d7457	-0.18501411
185	0x3ea6f43d	0.32608214
186	0xbd3f30dd	-0.04667746
187	0xbf07bc47	-0.53021663
188	0xbdc92919	-0.09822292
189	0xbdabeb99	-0.08394546
190	0xbe30baf5	-0.17258818
191	0x3f491194	0.7854245
192	0x3e9c2561	0.30497268
193	0xbd426b3f	-0.04746556
194	0xbda1bfb3	-0.07897892
195	0xbcb605e7	-0.022219611
196	0xbd6710d5	-0.056412537
197	0xbe1acc0c	-0.151169
198	0x3d2d7545	0.042348165
199	0x3e1ad5b9	0.15120591
200	0x3d261dd8	0.040555805
201	0x3f4c09d3	0.7970249
202	0xbe738485	-0.23781021
203	0xbddee8fd	-0.10884283
204	0xbd451ca6	-0.048123024
205	0xbd5c6ba1	-0.05381358
206	0xbe46bbe8	-0.19407618
207	0x3d3e9b49	0.04653481
208	0x3ece73ad	0.4032263
209	0x3dcc5723	0.099775575
210	0xbef5e519	-0.4802635
211	0xbf59d4db	-0.85090417
212	0xbf098c2c	-0.5372951
213	0x3ede7dc9	0.4345534
214	0x3f3dc0d7	0.74122375
215	0xbe533f38	-0.20629585
216	0x3eb44e0e	0.352158
217	0xbd0ffcd2	-0.035153218
218	0x3cefe56d	0.029284203
219	0xbe1ecf3a	-0.15508738
220	0xbe992ccb	-0.29916987
221	0xbe07e901	-0.13272478
222	0x3e11f372	0.14253023
223	0x3f390f53	0.7228901
224	0x3eb9034a	0.36135322
225	0xbe5c2734	-0.2149933
226	0xbe802b26	-0.2503292
227	0xbe67ae2f	-0.2262504
228	0xbea4b96b	-0.32172713
229	0xbb58a3fb	-0.0033056724
230	0xbdd994e0	-0.10624099
231	0x3e668fff	0.22515868
232	0x3e6c0f17	0.23052631
233	0x3f8b1b83	1.0867771
234	0xbe27f19f	-0.16400765
235	0x3e6e65fd	0.23281093
236	0xbb2c1c58	-0.0026262011
237	0xbe3dc002	-0.18530276
238	0xbd6094b0	-0.0548293
239	0xbbbaa834	-0.005696321
240	0x3e89a5d8	0.2688434
241	0xbdeb6a19	-0.11494846
242	0x3e448815	0.19192536
243	0xbf206a30	-0.6266203
244	0x3e902803	0.28155527
245	0x3f2ad397	0.6672911
246	0x3f82df2c	1.0224357
247	0x3e3befef	0.18353246
248	0x3eac84a7	0.33694956
249	0x3f0c5684	0.5481951
250	0x3e035bb6	0.12827954
251	0xbe59cfc8	-0.21270669
252	0xbe5de881	-0.21670724
253	0xbf09fe62	-0.5390378
254	0xbe4249ac	-0.18973416
255	0x3f9932c7	1.1968621

tril f4 [10, 10]
0	0x3f800000	1.0
1	0x00000000	0.0
2	0x00000000	0.0
3	0x00000000	0.0
4	0x00000000	0.0
5	0x00000000	0.0
6	0x00000000	0.0
7	0x00000000	0.0
8	0x00000000	0.0
9	0x00000000	0.0
10	0x3f800000	1.0
11	0x3f800000	1.0
12	0x00000000	0.0
13	0x00000000	0.0
14	0x00000000	0.0
15	0x00000000	0.0
16	0x00000000	0.0
17	0x00000000	0.0
18	0x00000000	0.0
19	0x00000000	0.0
20	0x3f800000	1.0
21	0x3f800000	1.0
22	0x3f800000	1.0
23	0x00000000	0.0
24	0x00000000	0.0
25	0x00000000	0.0
26	0x00000000	0.0
27	0x00000000	0.0
28	0x00000000	0.0
29	0x00000000	0.0
30	0x3f800000	1.0
31	0x3f800000	1.0
32	0x3f800000	1.0
33	0x3f800000	1.0
34	0x00000000	0.0
35	0x00000000	0.0
36	0x00000000	0.0
37	0x00000000	0.0
38	0x00000000	0.0
39	0x00000000	0.0
40	0x3f800000	1.0
41	0x3f800000	1.0
42	0x3f800000	1.0
43	0x3f800000	1.0
44	0x3f800000	1.0
45	0x00000000	0.0
46	0x00000000	0.0
47	0x00000000	0.0
48	0x00000000	0.0
49	0x00000000	0.0
50	0x3f800000	1.0
51	0x3f800000	1.0
52	0x3f800000	1.0
53	0x3f800000	1.0
54	0x3f800000	1.0
55	0x3f800000	1.0
56	0x00000000	0.0
57	0x00000000	0.0
58	0x00000000	0.0
59	0x00000000	0.0
60	0x3f800000	1.0
61	0x3f800000	1.0
62	0x3f800000	1.0
63	0x3f800000	1.0
64	0x3f800000	1.0
65	0x3f800000	1.0
66	0x3f800000	1.0
67	0x00000000	0.0
68	0x00000000	0.0
69	0x00000000	0.0
70	0x3f800000	1.0
71	0x3f800000	1.0
72	0x3f800000	1.0
73	0x3f800000	1.0
74	0x3f800000	1.0
75	0x3f800000	1.0
76	0x3f800000	1.0
77	0x3f800000	1.0
78	0x00000000	0.0
79	0x00000000	0.0
80	0x3f800000	1.0
81	0x3f800000	1.0
82	0x3f800000	1.0
83	0x3f800000	1.0
84	0x3f800000	1.0
85	0x3f800000	1.0
86	0x3f800000	1.0
87	0x3f800000	1.0
88	0x3f800000	1.0
89	0x00000000	0.0
90	0x3f800000	1.0
91	0x3f800000	1.0
92	0x3f800000	1.0
93	0x3f800000	1.0
94	0x3f800000	1.0
95	0x3f800000	1.0
96	0x3f800000	1.0
97	0x3f800000	1.0
98	0x3f800000	1.0
99	0x3f800000	1.0

weight f4 [8, 32]
0	0x3eacd9e5	0.3375999
1	0x3dea776f	0.114485614
2	0xbed988fb	-0.4248732
3	0xbe0558da	-0.13022175
4	0xbefba127	-0.49146387
5	0x3d05fa17	0.032709207
6	0x3e81989d	0.25311747
7	0xbd4be641	-0.049780134
8	0xbdacf58a	-0.0844527
9	0xbee68dd6	-0.45030087
10	0x3eb6b581	0.35685351
11	0xbe9b2a0a	-0.3030551
12	0xbe80f04b	-0.2518333
13	0x3c9fdade	0.019513544
14	0x3ef7e77e	0.48418802
15	0x3bc2672f	0.0059327106
16	0xbead7b2b	-0.33883032
17	0xbeb3a5b0	-0.35087347
18	0x3be948bc	0.0071192663
19	0x3d8f17c0	0.06986952
20	0xbe062822	-0.13101247
21	0x3f3dbac4	0.74113107
22	0x3d92ae25	0.07162122
23	0xbedfccca	-0.4371093
24	0xbc6e40fb	-0.01454186
25	0xbd3d17b8	-0.046165198
26	0x3ec4836a	0.3838151
27	0xbeb07b93	-0.3446928
28	0x3e19693a	0.14981547
29	0xbe7dd76e	-0.24789211
30	0xbc9da0af	-0.019241659
31	0x3ef1afef	0.4720454
32	0x3d9f0ab1	0.07765711
33	0x3eae0ef6	0.3399579
34	0xbe147165	-0.14496382
35	0x3b8b8942	0.0042583058
36	0xbdd63c3a	-0.10460706
37	0x3e0e5fca	0.13903728
38	0xbebf88ec	-0.3740915
39	0xbdbebdea	-0.09313567
40	0x3d8141a2	0.063113466
41	0x3f1d8c7d	0.61542493
42	0x3dcb47f6	0.09925835
43	0x3ec1be43	0.3784047
44	0x3c4bde6f	0.012443169
45	0xbf12774a	-0.5721327
46	0x3ed526b7	0.416311
47	0xbeab3c59	-0.3344448
48	0xbea88bd2	-0.32919174
49	0x3d69ff0f	0.05712801
50	0x3ec0c8b6	0.3765313
51	0x3e7301e5	0.23731191
52	0xbdfae39a	-0.12250443
53	0xbe72f5a4	-0.23726517
54	0x3f48b737	0.78404564
55	0xbe895f63	-0.26830587
56	0xbd6f2aca	-0.058390416
57	0x3ef321a4	0.47486603
58	0xbdbf88d4	-0.0935227
59	0xbe5dd7d0	-0.21664357
60	0x3eb47190	0.3524289
61	0xbc95bf59	-0.018279718
62	0xbc94a78c	-0.018146299
63	0x3ebe74e0	0.37198544
64	0xbe752f67	-0.23943864
65	0x3d2dafd6	0.04240402
66	0x3de24a4c	0.11049327
67	0xbca7a982	-0.02046657
68	0xbe06dada	-0.13169423
69	0x3ea56be5	0.3230888
70	0x3d52373c	0.051322207
71	0x3ad47703	0.0016209785
72	0x3e83f96e	0.25776237
73	0x3dc9e3f7	0.09857934
74	0xbf271715	-0.65269595
75	0xbf0fc28f	-0.5615625
76	0xbec98743	-0.3936101
77	0xbea049fc	-0.31306446
78	0x3e965fa8	0.29369855
79	0x3e15ae3c	0.14617246
80	0xbe24fd9e	-0.16112372
81	0x3e465adb	0.19370596
82	0xbf2d120a	-0.6760565
83	0xbe72d398	-0.23713529
84	0xbf0dd1c7	-0.5539822
85	0xbe978bb0	-0.2959876
86	0xbe2c6dcd	-0.1683876
87	0x3ecd0d66	0.40049285
88	0xbe7980ad	-0.24365492
89	0xbd046244	-0.032320276
90	0x3e66ec51	0.22551085
91	0x3e5e6d9b	0.21721499
92	0xbe0e65dc	-0.13906044
93	0xbc96807b	-0.018371811
94	0xbf408217	-0.751985
95	0x3e956e3e	0.2918567
96	0x3d400972	0.046884008
97	0x3f0b4645	0.544041
98	0xbe8c8ae6	-0.2744972
99	0xbedcb6ca	-0.43108207
100	0xbe71f5b7	-0.23628889
101	0xbe8ac5ba	-0.27103978
102	0xbe2b2636	-0.16713795
103	0xbf1827f5	-0.5943597
104	0xbeb752b8	-0.35805297
105	0xbe9220ee	-0.28540748
106	0x3e33362e	0.17501137
107	0xbebbed0a	-0.36704284
108	0xbddeb1e3	-0.10873773
109	0xbea4f65a	-0.322192
110	0xbeb66db1	-0.35630563
111	0xbeaabba6	-0.3334629
112	0x3ea27c4a	0.3173545
113	0xbe011d59	-0.12608851
114	0x3e577fe9	0.21044888
115	0x3ed9712f	0.42469165
116	0xbe434d0e	-0.19072363
117	0x3e8d3724	0.2758113
118	0xbdd8e208	-0.10589987
119	0x3ec98c1b	0.39364704
120	0x3e17857c	0.14797014
121	0x3e41e7d5	0.18936093
122	0xbecc2335	-0.3987061
123	0xbd52cf53	-0.05146725
124	0xbf4af7b7	-0.7928423
125	0xbeba1e46	-0.36351222
126	0xbe0ca59c	-0.1373505
127	0xbe56baee	-0.20969746
128	0x3d93d79f	0.07218861
129	0x3e22edf5	0.15911086
130	0x3e907868	0.28216863
131	0xbe259ddc	-0.161735
132	0x3f125e06	0.5717472
133	0x3dbba1a3	0.09161689
134	0xbef71d4b	-0.48264536
135	0x3dfa9f16	0.122373745
136	0xbe35ce1b	-0.17754404
137	0xbe2c7ea9	-0.16845192
138	0x3ecab946	0.39594477
139	0x3e6beca7	0.23039494
140	0xbdcceaf6	-0.10005753
141	0xbf0ab13a	-0.54176676
142	0x3e05406f	0.1301286
143	0x3f1f41a9	0.62209564
144	0x3eea1ddc	0.45725906
145	0xbf002ec4	-0.5007136
146	0x3e923a3f	0.28560063
147	0xbe35ac17	-0.17741428
148	0x3ddebce1	0.108758695
149	0x3e537d28	0.20653212
150	0x3f12d051	0.57349116
151	0xbe99349f	-0.2992296
152	0xbd0b7a11	-0.03405196
153	0x3e03a482	0.12855724
154	0x3e78bdf5	0.24291213
155	0x3ece0f6c	0.4024614
156	0x3d902532	0.070383444
157	0x3d542761	0.051795367
158	0xbf12e428	-0.5737939
159	0x3f2131bd	0.6296652
160	0x3ed73ff9	0.42040995
161	0xbedd62ef	-0.43239543
162	0x3deaa318	0.11456889
163	0xbe59eecc	-0.212825
164	0x3d65c7bd	0.05609869
165	0xbe9f0435	-0.31057897
166	0x3f0fe418	0.5620742
167	0x3eee21e8	0.46510243
168	0xbe5b0163	-0.21387248
169	0x3e8c6c53	0.27426395
170	0xbe885cd9	-0.26633337
171	0xbf1ca931	-0.61195666
172	0x3e773f54	0.24145252
173	0x3cc9a051	0.024612578
174	0x3f025d43	0.50923556
175	0xbeb3fc39	-0.35153368
176	0xbc10899c	-0.008821871
177	0xbeb8ac0e	-0.36068767
178	0x3e006be6	0.1254116
179	0xbecfdd87	-0.405987
180	0x3e0fe5fe	0.14052579
181	0xbe8ef5a7	-0.27921793
182	0xbe89a303	-0.2688218
183	0x3ea6d51b	0.32584462
184	0xbdbb97ae	-0.0915979
185	0xbe874055	-0.2641627
186	0xbd2a2685	-0.04154064
187	0x3d905120	0.07046723
188	0x3c5074ee	0.012723191
189	0xbecae4d7	-0.39627716
190	0x3e2d402f	0.16919015
191	0x3e02a6a1	0.12758876
192	0xbeffa9ba	-0.4993418
193	0x3d927ece	0.07153092
194	0xbe2e4b50	-0.17020917
195	0x3d05cf9f	0.032668706
196	0xbe2de04e	-0.16980097
197	0xbdab6f81	-0.08370877
198	0xbdf97dfa	-0.12182231
199	0xbe9b37ad	-0.30315915
200	0xbf1c25ee	-0.60995376
201	0xbeacc511	-0.337441
202	0x3ec70080	0.3886757
203	0x3f159705	0.5843356
204	0xbdc9076b	-0.09815868
205	0xbc4e2e09	-0.012584218
206	0xbe7b2134	-0.24524385
207	0xbc137551	-0.009000138
208	0xbddb145f	-0.10697245
209	0xbe8883d5	-0.2666308
210	0xbe721526	-0.2364088
211	0xbee27f52	-0.44237763
212	0xbe2fc15c	-0.17163604
213	0xbef487af	-0.47759768
214	0xbe66f6a4	-0.22555023
215	0xbf5acf04	-0.8547213
216	0x3ea76c02	0.3269959
217	0x3dd5b678	0.10435194
218	0x3e959f26	0.29222983
219	0x3e8643d7	0.26223633
220	0xbed29da3	-0.41135892
221	0x3e030880	0.12796211
222	0xbe3f3584	-0.18672758
223	0x3e2e4982	0.17020229
224	0x3cc091f4	0.023507096
225	0xbf021d18	-0.50825644
226	0xbc3a407d	-0.011367914
227	0x3d1002a9	0.035158787
228	0xbedfa518	-0.43680644
229	0xbe5d4200	-0.21607208
230	0x3f05e205	0.52298003
231	0xbe0f447c	-0.13990968
232	0xbc8475c8	-0.016169444
233	0x3f274572	0.6534034
234	0x3a2287b6	0.0006200032
235	0x3e818696	0.25297993
236	0x3c12a5a2	0.008950623
237	0xbf5dc3f3	-0.8662712
238	0x3e7920a8	0.24328864
239	0x3e0af417	0.13569675
240	0x3dc15710	0.09440434
241	0x3e91dc0e	0.284882
242	0x3ecfb955	0.40571085
243	0x3d0495c1	0.03236938
244	0x3e9c4356	0.30520123
245	0x3deb035c	0.1147525
246	0x3c2b420f	0.010452761
247	0xbdc91b76	-0.09819691
248	0xbe9df762	-0.308528
249	0xbdca2a58	-0.09871358
250	0x3a5198a5	0.0007995463
251	0xbeedbf41	-0.46434978
252	0x3ce94b3b	0.028478255
253	0x3e4183a6	0.18897876
254	0xbed4c303	-0.41555032
255	0xbddc7dec	-0.10766205

weight f4 [8, 32]
0	0xbe2367e2	-0.15957597
1	0xbda24e29	-0.07925064
2	0x3e3c008a	0.1835958
3	0xbf14d757	-0.5814108
4	0x3dab35d0	0.08359873
5	0xbf545fb3	-0.82958525
6	0xbf05a9f5	-0.5221246
7	0x3f4032f8	0.7507777
8	0x3ea54903	0.32282266
9	0x3c81b2fc	0.015832417
10	0x3e85e73a	0.26152974
11	0x3ecc35cb	0.3988479
12	0xbe4495af	-0.19197725
13	0xbe4d9eb9	-0.20080079
14	0xbf48d7f7	-0.78454536
15	0xbddf1ab0	-0.10893762
16	0x3f1b809e	0.6074313
17	0xbe29bf81	-0.16576959
18	0x3db0dcad	0.086358406
19	0x3b965954	0.0045882855
20	0x3e9affe8	0.30273366
21	0x3e76c460	0.24098349
22	0xbf25d28b	-0.6477439
23	0x3e1716e9	0.14754833
24	0xbe740904	-0.23831564
25	0xbe882618	-0.26591563
26	0xbda72592	-0.08161463
27	0xbe18d7e7	-0.1492611
28	0xbf00d50b	-0.5032508
29	0x3d8d4c73	0.06899347
30	0xbebe3adf	-0.3715429
31	0xbf058c95	-0.52167636
32	0xbcf45835	-0.029827217
33	0xbe47c71a	-0.19509545
34	0x3d586e0e	0.05283933
35	0x3cab8b9a	0.02094059
36	0xbe8393e9	-0.25698784
37	0xbd9f7d60	-0.07787585
38	0x3f25e85c	0.6480768
39	0x3e3b0af0	0.18265891
40	0x3f2475f6	0.64242494
41	0xbece6a18	-0.40315318
42	0x3dd44697	0.103650264
43	0x3dd60524	0.10450199
44	0x3f0f412a	0.5595881
45	0x3e6f55d9	0.23372592
46	0x3e900c63	0.2813445
47	0xbe191ba0	-0.14951944
48	0x3ea6e3a4	0.3259555
49	0xbf644d7c	-0.8918073
50	0x3e9d5043	0.30725297
51	0x3f2c6495	0.67340976
52	0x3f0be853	0.54651374
53	0x3ebb56c3	0.3658963
54	0xbee642fd	-0.44972983
55	0x3e203f58	0.15649164
56	0x3e9548d2	0.2915712
57	0x3efbac03	0.49154672
58	0x3eb9d010	0.36291552
59	0xbe42f830	-0.19039989
60	0x3f1eaba0	0.6198063
61	0x3ddef79e	0.10887073
62	0xbe914e9f	-0.28380296
63	0x3e35539c	0.17707676
64	0x3e85cc1a	0.2613228
65	0x3da5c33f	0.08093881
66	0x3ebf3280	0.37343216
67	0x3eace5e4	0.33769143
68	0x3efc7a63	0.49312124
69	0x3bcb0c3b	0.0061965263
70	0x3e2d4e4b	0.16924398
71	0xbe6bdbf5	-0.23033126
72	0xbecaa72a	-0.3958066
73	0xbeb05552	-0.34440094
74	0x3e3f52fc	0.18684
75	0x3e7a9035	0.24469073
76	0xbdd6ff18	-0.10497874
77	0x3dc44016	0.09582536
78	0xbf510e78	-0.816627
79	0xbe535270	-0.20636916
80	0x3d8655a4	0.065593034
81	0x3eca49d4	0.3950945
82	0x3da788ae	0.081803665
83	0x3e8fbc4d	0.2807335
84	0x3eaeabba	0.34115392
85	0xbea2561a	-0.31706315
86	0x3eb0a908	0.3450396
87	0xbef026d7	-0.46904632
88	0x3e56ad07	0.20964442
89	0xbe73e3d8	-0.23817384
90	0x3f2aa17a	0.66652644
91	0x3e025cdb	0.12730734
92	0x3d797d76	0.060910664
93	0x3d89c13d	0.067263104
94	0x3ce43f6d	0.027862275
95	0x3cb8baf7	0.02255009
96	0x3f1d0de8	0.61349344
97	0xbec4c36a	-0.3843034
98	0xbe107b69	-0.14109577
99	0xbda5ffa2	-0.08105399
100	0x3d6766eb	0.056494635
101	0x3ef44a08	0.4771273
102	0xbbb9f298	-0.0056746714
103	0x3df867dd	0.12129185
104	0x3eb15931	0.3463836
105	0x3f05948c	0.5217979
106	0xbe81250e	-0.25223583
107	0x3e72c108	0.23706448
108	0xbd8b92fa	-0.06815143
109	0xbe27dd34	-0.16392976
110	0xbd11afd8	-0.03556809
111	0x3dd9df1f	0.1063826
112	0x3ed0ed1d	0.40805903
113	0xbe3512b2	-0.17682913
114	0xbe6d2c89	-0.2316152
115	0xbf04887b	-0.5177075
116	0xbdf9163b	-0.12162443
117	0x3cbadbe6	0.022809934
118	0x3d1c1600	0.03810692
119	0x3d23a1ea	0.039949335
120	0xbd660585	-0.056157608
121	0xbf5ba8f2	-0.85804665
122	0x3ec7cdb4	0.39024127
123	0xbf2deeef	-0.6794271
124	0x3e97c41c	0.29641807
125	0xbe1a2145	-0.15051754
126	0x3e36491b	0.17801325
127	0x3ea87ccb	0.3290771
128	0xbdb7e645	-0.08979467
129	0xbf07d628	-0.5306115
130	0x3d9020a0	0.07037473
131	0xbe27bacc	-0.16379851
132	0x3ddf37d1	0.10899318
133	0x3d8d1b48	0.06889969
134	0x3f516a19	0.8180252
135	0xbf05ee5e	-0.52316844
136	0x3f030d84	0.511925
137	0x3e7718cc	0.24130553
138	0x3e211dd3	0.15734033
139	0xbe2eeb4a	-0.17081943
140	0x3d48b66f	0.049002107
141	0x3d77a594	0.060460642
142	0xbd13eb96	-0.036113344
143	0x3ef97130	0.48719168
144	0xbc39d198	-0.011341475
145	0x3d197354	0.0374635
146	0x3f6af7d4	0.91784406
147	0x3ed0e2cf	0.4079804
148	0x3dd101db	0.10205432
149	0xbe44ed28	-0.19231093
150	0xbeac1166	-0.33607024
151	0x3e12a2a2	0.14319852
152	0xbe8f1efc	-0.27953327
153	0xbdf84f20	-0.12124467
154	0xbe7057d5	-0.23471005
155	0xbb7da48b	-0.0038702812
156	0xbe20252f	-0.15639184
157	0xbd9a76b7	-0.07542174
158	0xbe5ef078	-0.21771419
159	0xbf389af8	-0.72111464
160	0xbe4d1691	-0.2002814
161	0x3f30ee00	0.6911316
162	0xbd8150be	-0.063142285
163	0xbe88b648	-0.2670157
164	0x3ed597df	0.4171743
165	0x3ecfa769	0.4055741
166	0xbec83b5e	-0.39107794
167	0x3dd61173	0.10452547
168	0x3ead84c2	0.3389035
169	0xbe4efdf7	-0.20214067
170	0x3f144e09	0.5793157
171	0x3e80ee02	0.25181586
172	0xbef3cc5c	-0.4761685
173	0x3e93227c	0.28737247
174	0xbf06c9ef	-0.52651876
175	0x3e38da4f	0.18052028
176	0xbebeeaaa	-0.3728841
177	0xbe9020dd	-0.28150073
178	0x3c67a8da	0.014139378
179	0xbe1c2c83	-0.15251355
180	0xbeb249b9	-0.3482187
181	0xbe286255	-0.1644376
182	0xbe93f948	-0.28901124
183	0xbf31b13c	-0.69411063
184	0xbea5b322	-0.3236323
185	0x3ef22a42	0.47297865
186	0xbdee4da3	-0.11635902
187	0xbe389f00	-0.18029404
188	0x3d8489e6	0.064716145
189	0x3e7a4148	0.24438965
190	0xbd2a57cc	-0.041587636
191	0x3e808938	0.2510469
192	0x3f0a8e1f	0.5412311
193	0xbe8d28ce	-0.27570194
194	0x3e9360e3	0.28784856
195	0x3d17616a	0.036958136
196	0x3dda0dc4	0.10647157
197	0xbea7f22f	-0.3280196
198	0xbc8af525	-0.016962597
199	0x3da7b43e	0.08188675
200	0x3e61f4f6	0.22066101
201	0x3e3798b6	0.17929348
202	0xbf32c541	-0.69832236
203	0xbe9a2ad0	-0.30110788
204	0xbe7a8141	-0.24463369
205	0xbed72f86	-0.42028445
206	0x3ce372b2	0.027764652
207	0xbf28c131	-0.65919787
208	0xbea0c1a9	-0.3139775
209	0x3e2acf46	0.16680631
210	0x3ed98a56	0.42488354
211	0x3e325b0e	0.17417547
212	0x3e4b7ea1	0.19872524
213	0xbe578586	-0.21047029
214	0x3ed1fda7	0.41013834
215	0x3eedf183	0.4647332
216	0xbea0398d	-0.31293908
217	0x3dc42c79	0.09578795
218	0xbed3daa6	-0.41377753
219	0xbeac762d	-0.3368391
220	0x3ee96bc4	0.4559003
221	0xbe693f18	-0.22777975
222	0xbe626097	-0.22107159
223	0xbee13577	-0.43986103
224	0xbf31e55c	-0.694906
225	0xbdabfee4	-0.08398226
226	0xbf101e4e	-0.5629624
227	0x3e0d1015	0.13775666
228	0x3efaf66e	0.49016136
229	0x3e299828	0.16561949
230	0xbf0483e9	-0.5176378
231	0xbed2abaf	-0.4114661
232	0x3eed1e8b	0.46312365
233	0xbce4bcd1	-0.027922066
234	0x3e8be4c8	0.27322984
235	0x3eefeed3	0.46861896
236	0x3e04ee3e	0.12981507
237	0xbd57a8cc	-0.05265121
238	0x3e55e0f9	0.20886602
239	0xbf07905b	-0.52954644
240	0xbe595d79	-0.21227063
241	0xbf90f8cd	-1.1325928
242	0xbe10d6b9	-0.1414441
243	0x3ef107f9	0.47076395
244	0x3ea0cc40	0.3140583
245	0xbe9efa04	-0.31050122
246	0xbd3f9ce5	-0.046780486
247	0xbe624efd	-0.22100444
248	0x3d684720	0.056708455
249	0xbe8f2513	-0.27957973
250	0x3dbf8e35	0.09353296
251	0x3ed51b07	0.41622183
252	0x3e3df640	0.18550968
253	0xbe3bbc3b	-0.18333523
254	0x3d36a4eb	0.04459087
255	0xbd6ab6b3	-0.05730314

weight f4 [8, 32]
0	0x3d5546df	0.05206954
1	0x3d903b63	0.07042577
2	0xbe12df37	-0.14342962
3	0x3d49ad59	0.049237583
4	0x3d2db2b5	0.042406756
5	0x3d82193c	0.06352469
6	0x3d75bc96	0.059994303
7	0xbd6193d2	-0.055072613
8	0x3d0a1fc0	0.033721685
9	0x3d1d89ef	0.03846162
10	0x3be13bb4	0.0068735722
11	0x3d910c3a	0.0708241
12	0xbdc8a5d2	-0.09797253
13	0x3d60a3d0	0.054843724
14	0xbd4e8775	-0.05042215
15	0xbc9817c0	-0.018566012
16	0xbd4eda5a	-0.050501205
17	0x3e0804a6	0.13283023
18	0x3d79519a	0.060868837
19	0x3c18cd84	0.0093263425
20	0xbcb79617	-0.022410436
21	0xbd924e6b	-0.07143863
22	0xbcd15f22	-0.025558058
23	0x3bec9677	0.0072200852
24	0xbc44c662	-0.012010189
25	0xbe1be5bf	-0.1522436
26	0x3d62ce19	0.05537233
27	0xbc180d25	-0.009280478
28	0xbd5eafed	-0.054366995
29	0xbd02b7fd	-0.031913746
30	0xbda77ff7	-0.08178704
31	0xbdccb3b6	-0.09995215
32	0x3c45beb0	0.012069389
33	0x3dcea4ac	0.100900024
34	0xbd470fb5	-0.048598964
35	0x3c8a2f97	0.016868396
36	0x3c792280	0.015205979
37	0xbdaf6263	-0.08563688
38	0xba73525c	-0.0009281987
39	0x3d7f10b2	0.06227178
40	0xbc8ddb4e	-0.017316487
41	0x3c6b6ff8	0.014369957
42	0xbd46c866	-0.04853096
43	0x3d73daa4	0.059534684
44	0x3da68943	0.08131649
45	0x3c119037	0.008884481
46	0x3c2c96d9	0.010534012
47	0xbd907170	-0.070528865
48	0x3d1ef9ce	0.03881245
49	0xbd3c0239	-0.045900557
50	0x3d0cfa80	0.034418583
51	0xbe2b7eaa	-0.16747537
52	0xbcfb0515	-0.030642072
53	0x3d334c39	0.043773863
54	0x3dc06038	0.09393352
55	0x3dc4a336	0.096014425
56	0xbc2f29de	-0.010691134
57	0x3c1928da	0.009348119
58	0x3e19eaef	0.15031026
59	0xbdffb4d4	-0.12485662
60	0xbd18e7bc	-0.037330374
61	0x3c202cc7	0.009776301
62	0x3c34d7e3	0.0110377995
63	0xbd0b7ef4	-0.03405662
64	0x3cb85c90	0.022505075
65	0x3dd39d5b	0.103327475
66	0xbd8b52ab	-0.06802877
67	0xbdee6b53	-0.11641564
68	0x3abd8118	0.0014458029
69	0x3d89d36c	0.06729779
70	0xbc907845	-0.017635474
71	0x3bf5454b	0.007485067
72	0xbce3f48b	-0.027826568
73	0xbd9672cf	-0.07346117
74	0x3bf12f14	0.0073603485
75	0xbdd6e181	-0.1049223
76	0x3d5fe3de	0.05466067
77	0x3cd64660	0.026156604
78	0x3de9785c	0.1139991
79	0xbca18e3f	-0.019721149
80	0x3d846b80	0.064658165
81	0x3c4234cd	0.011853409
82	0x3de63163	0.112398885
83	0x3d3d61d6	0.04623588
84	0xbd370eb9	-0.044691775
85	0x3bda5a99	0.006663632
86	0x3db7a74b	0.089674555
87	0xbc8ee421	-0.017442765
88	0x3d9ff106	0.078096434
89	0xbe267ec2	-0.16259292
90	0xbd8a1d77	-0.06743901
91	0x3d84f32e	0.06491695
92	0x3da912d2	0.08255543
93	0x3bd3583b	0.006449727
94	0xbe02516b	-0.12726371
95	0x3d1900f2	0.037354417
96	0xbd162be7	-0.036662962
97	0xbd91a12b	-0.071108185
98	0xbd09ce59	-0.033644054
99	0xbcffa240	-0.031205297
100	0x3dd69b02	0.10478784
101	0xbe0e7367	-0.1391121
102	0xbcef9968	-0.029247954
103	0x3d438e94	0.047743395
104	0xbc9bec2f	-0.01903352
105	0xbca6ab5f	-0.020345388
106	0x3c12bb54	0.008955795
107	0x3d16540f	0.03670126
108	0xbd1fb380	-0.038989544
109	0x3cb48ede	0.02204078
110	0xb84218be	-4.6276247e-05
111	0x3d266bf4	0.040630296
112	0xbaa3577f	-0.0012461989
113	0xbd67bfcb	-0.056579392
114	0xbd8d1b33	-0.068899535
115	0xbd5d8944	-0.054085985
116	0xbd6467c9	-0.05576304
117	0xbd312bee	-0.043254785
118	0xbd686568	-0.056737334
119	0xbdd4779c	-0.10374376
120	0xbe06bb1f	-0.13157319
121	0x3d9178e5	0.07103137
122	0xbdd5fe92	-0.10448946
123	0xbc7b992c	-0.015356343
124	0x3dde9f30	0.10870206
125	0xbda35c2e	-0.07976566
126	0xbdb34a39	-0.08754391
127	0xbdea1a98	-0.114308536
128	0x3e4d875b	0.20071165
129	0x3cb92444	0.0226003
130	0x3dabaa9b	0.0838215
131	0xbdbb6de3	-0.091518186
132	0x3d9f4dcb	0.0777851
133	0x3d3319c1	0.043725733
134	0xbdb5032f	-0.08838498
135	0xbcf84729	-0.03030737
136	0x3dcea9da	0.1009099
137	0x3a1ae1b4	0.0005908266
138	0x3d505df7	0.05087086
139	0x3c317165	0.010830258
140	0xbd11beb4	-0.03558226
141	0xbda9aaf5	-0.082845606
142	0xbd00818d	-0.03137355
143	0x3c939eab	0.018019995
144	0x3d6b5ad9	0.057459686
145	0x3cebe5b6	0.028796058
146	0xbd197699	-0.03746662
147	0xbb16f10c	-0.0023031859
148	0x3d04ff88	0.032470256
149	0xbc59e8d0	-0.013300136
150	0xbdcf518a	-0.10122974
151	0xbc53cc34	-0.012927104
152	0xbde553b8	-0.11197609
153	0xbdbb9225	-0.09158734
154	0x3d06229f	0.03274786
155	0x3c4452cd	0.011982632
156	0xbd488312	-0.048953123
157	0xbd33e405	-0.04391863
158	0x3d9be91c	0.076128215
159	0x3d6ec39a	0.05829201
160	0x3c9689d0	0.018376261
161	0xbd789b8d	-0.06069522
162	0xbcacd5ec	-0.0210981
163	0x3ccc6356	0.02494971
164	0xbc7bd651	-0.015370921
165	0xbbb5e01e	-0.0055503985
166	0xbdb106b4	-0.08643857
167	0x3af3fda6	0.0018615022
168	0x3d9e22bf	0.07721471
169	0xbce4a346	-0.027909886
170	0xbd1bb540	-0.03801465
171	0x3af2777c	0.0018498744
172	0xbda81158	-0.08206433
173	0x3ce1d3f5	0.02756689
174	0xbdebffcd	-0.115233995
175	0x3b7811ac	0.003785233
176	0x3d13c0f0	0.03607267
177	0x3bee5c3a	0.007274178
178	0x3cec2138	0.028824434
179	0xbc9a3d6b	-0.018828114
180	0xbcfcf2ac	-0.030877434
181	0x3e42f6d3	0.19039468
182	0x3d7a90c1	0.061173204
183	0x3d7a4a8a	0.061106242
184	0xbca8e1fd	-0.020615572
185	0x3b703d15	0.0036657501
186	0xbd99f8c5	-0.07518152
187	0xbd5980aa	-0.05310122
188	0xbceb5f5b	-0.028731992
189	0x3d8fda5a	0.07024069
190	0xbd7aac7f	-0.06119966
191	0x3d2bf86b	0.041984957
192	0x3da1c484	0.078988105
193	0xbccaf19c	-0.024773411
194	0xbe02d8b4	-0.12777978
195	0xbdfb93b3	-0.12284031
196	0x3cabfbad	0.020994032
197	0x3d9425d3	0.07233777
198	0xbdac398a	-0.08409412
199	0x3cd84fc7	0.026405228
200	0x3d4e24a3	0.05032791
201	0x3c4a190c	0.012335073
202	0xbd5c0f22	-0.05372537
203	0xbc0c9203	-0.008579734
204	0x3c839d44	0.016066201
205	0xbcd2f799	-0.02575283
206	0x3cb62bf0	0.022237748
207	0xbe125dbc	-0.1429357
208	0xbda9e8ff	-0.082963936
209	0xbd473386	-0.04863312
210	0x3cca84c3	0.024721509
211	0x3d2a1a63	0.04152907
212	0xbd3f978b	-0.046775382
213	0x3d19c375	0.037539918
214	0x3c759e6b	0.014991383
215	0x3d637d7a	0.055539586
216	0x3d8aa0f0	0.06768978
217	0x3ddfa296	0.10919683
218	0xbd2dfd11	-0.04247767
219	0x3d385a7d	0.04500817
220	0xbd5dd230	-0.05415553
221	0xbc3a5078	-0.011371724
222	0x3d3389c9	0.043832574
223	0x3d54075d	0.051764835
224	0x3e1c31a3	0.1525331
225	0x3d9fcb2a	0.07802422
226	0x3cf04d1c	0.029333644
227	0xbcbe8f76	-0.023261767
228	0xbd7ae979	-0.061257813
229	0x3c229f61	0.009925694
230	0xbc5f5f61	-0.01363358
231	0x3d975d03	0.073907875
232	0x3cbf2ce0	0.023336828
233	0xbdd2cd4c	-0.102930635
234	0x3dd9de96	0.10638158
235	0x3d9f1b67	0.077688985
236	0xbdc642f9	-0.09680743
237	0x3d0b0ca6	0.03394761
238	0x3d7f44c2	0.062321432
239	0xbd07e1a5	-0.033174176
240	0xbd4aa7a5	-0.049476285
241	0x3d8f8a9a	0.07008858
242	0xbdc2178d	-0.09477148
243	0x3dbda0ed	0.0925921
244	0xbd703892	-0.0586477
245	0x3d527b1b	0.051386934
246	0x3d79cee1	0.06098831
247	0x3d707a3c	0.05871032
248	0xbb21ce5f	-0.0024689657
249	0x3d9345fe	0.07191084
250	0x3d05b0f3	0.032639455
251	0x3b3aca57	0.0028501952
252	0x3deb3785	0.11485199
253	0xbd9345b5	-0.0719103
254	0xbdeb5116	-0.11490075
255	0xbbb4fadc	-0.005523069

tril f4 [10, 10]
0	0x3f800000	1.0
1	0x00000000	0.0
2	0x00000000	0.0
3	0x00000000	0.0
4	0x00000000	0.0
5	0x00000000	0.0
6	0x00000000	0.0
7	0x00000000	0.0
8	0x00000000	0.0
9	0x00000000	0.0
10	0x3f800000	1.0
11	0x3f800000	1.0
12	0x00000000	0.0
13	0x00000000	0.0
14	0x00000000	0.0
15	0x00000000	0.0
16	0x00000000	0.0
17	0x00000000	0.0
18	0x00000000	0.0
19	0x00000000	0.0
20	0x3f800000	1.0
21	0x3f800000	1.0
22	0x3f800000	1.0
23	0x00000000	0.0
24	0x00000000	0.0
25	0x00000000	0.0
26	0x00000000	0.0
27	0x00000000	0.0
28	0x00000000	0.0
29	0x00000000	0.0
30	0x3f800000	1.0
31	0x3f800000	1.0
32	0x3f800000	1.0
33	0x3f800000	1.0
34	0x00000000	0.0
35	0x00000000	0.0
36	0x00000000	0.0
37	0x00000000	0.0
38	0x00000000	0.0
39	0x00000000	0.0
40	0x3f800000	1.0
41	0x3f800000	1.0
42	0x3f800000	1.0
43	0x3f800000	1.0
44	0x3f800000	1.0
45	0x00000000	0.0
46	0x00000000	0.0
47	0x00000000	0.0
48	0x00000000	0.0
49	0x00000000	0.0
50	0x3f800000	1.0
51	0x3f800000	1.0
52	0x3f800000	1.0
53	0x3f800000	1.0
54	0x3f800000	1.0
55	0x3f800000	1.0
56	0x00000000	0.0
57	0x00000000	0.0
58	0x00000000	0.0
59	0x00000000	0.0
60	0x3f800000	1.0
61	0x3f800000	1.0
62	0x3f800000	1.0
63	0x3f800000	1.0
64	0x3f800000	1.0
65	0x3f800000	1.0
66	0x3f800000	1.0
67	0x00000000	0.0
68	0x00000000	0.0
69	0x00000000	0.0
70	0x3f800000	1.0
71	0x3f800000	1.0
72	0x3f800000	1.0
73	0x3f800000	1.0
74	0x3f800000	1.0
75	0x3f800000	1.0
76	0x3f800000	1.0
77	0x3f800000	1.0
78	0x00000000	0.0
79	0x00000000	0.0
80	0x3f800000	1.0
81	0x3f800000	1.0
82	0x3f800000	1.0
83	0x3f800000	1.0
84	0x3f800000	1.0
85	0x3f800000	1.0
86	0x3f800000	1.0
87	0x3f800000	1.0
88	0x3f800000	1.0
89	0x00000000	0.0
90	0x3f800000	1.0
91	0x3f800000	1.0
92	0x3f800000	1.0
93	0x3f800000	1.0
94	0x3f800000	1.0
95	0x3f800000	1.0
96	0x3f800000	1.0
97	0x3f800000	1.0
98	0x3f800000	1.0
99	0x3f800000	1.0

weight f4 [8, 32]
0	0xbe81856f	-0.25297114
1	0x3f3c9711	0.7366801
2	0x3e545b65	0.20737989
3	0xbe1a233d	-0.15052505
4	0x3e888974	0.26667368
5	0x3eb7196e	0.3576159
6	0xbf2d4550	-0.6768389
7	0xbce03178	-0.027367339
8	0xbd2c34ad	-0.042042423
9	0xbf14ae93	-0.5807888
10	0x3e192123	0.14954047
11	0xbe709f65	-0.23498304
12	0xbe0b9062	-0.13629296
13	0x3ee3db6c	0.44503343
14	0xbf4fb794	-0.81139493
15	0x3bf4d271	0.0074713756
16	0xbd96deb6	-0.073666975
17	0xbe274bed	-0.16337557
18	0x3cee143b	0.029062381
19	0xbef6b1de	-0.48182577
20	0xbe5b3b12	-0.21409252
21	0xbdcc91e9	-0.09988768
22	0xbe473935	-0.19455417
23	0x3c121870	0.008916959
24	0x3dd611a4	0.104525834
25	0x3e8b93ea	0.27261287
26	0xbd6f53a0	-0.05842936
27	0x3ebe6265	0.37184444
28	0xbe801eb1	-0.25023416
29	0xbe58eabc	-0.21183294
30	0x3edd7768	0.43255162
31	0x3ebb37b7	0.36565945
32	0xbd7b5eff	-0.061369892
33	0xbd2f069d	-0.042730916
34	0x3e0b842f	0.13624643
35	0xbe83dfe8	-0.25756764
36	0xbd6dc3f6	-0.05804821
37	0xbebdfb19	-0.37105635
38	0x3ed42d15	0.41440645
39	0x3e21e7cd	0.15811081
40	0x3d0b6f27	0.03404155
41	0x3d12888a	0.035774745
42	0xbe4df02b	-0.20111148
43	0xbefb225e	-0.49049658
44	0x3e574e04	0.21025854
45	0x3ed97ee7	0.4247963
46	0x3e23c02e	0.1599128
47	0xbef10515	-0.4707419
48	0xbe41be47	-0.18920241
49	0xbca33db3	-0.019926881
50	0x3e0a4e08	0.13506329
51	0xbf2ada40	-0.66739273
52	0xbdb24e3d	-0.08706329
53	0xbe9ca217	-0.30592415
54	0xbe2f11df	-0.17096661
55	0x3ec40804	0.38287365
56	0xbd2dfd95	-0.042478163
57	0x3e8ae41b	0.27127156
58	0xbeed954b	-0.46402964
59	0x3e844eba	0.25841314
60	0xbdba11f7	-0.09085458
61	0xbeeb96f6	-0.46013612
62	0x3e87fe8d	0.26561394
63	0xbd9542ec	-0.07288155
64	0xbe17e57e	-0.14833638
65	0xbeacb662	-0.33732897
66	0x3f359d46	0.70943105
67	0xbcca1149	-0.024666445
68	0xbdf185d3	-0.11793103
69	0xbf464931	-0.7745543
70	0xbe11431a	-0.14185753
71	0xbd897e97	-0.06713598
72	0x3e5f9045	0.21832378
73	0xbeaa05fe	-0.33207697
74	0xbecfc7d8	-0.40582156
75	0x3ea3a3a7	0.31960794
76	0xbd9c4d1b	-0.07631894
77	0x3f10dd33	0.56587523
78	0xbe83485b	-0.2564114
79	0x3df180c0	0.11792135
80	0x3e21f0d9	0.15814532
81	0x3c3a64e6	0.011376595
82	0xbcaa9a20	-0.020825446
83	0x3ea1014c	0.31446302
84	0x3dc5141a	0.09622975
85	0xbedaaee2	-0.4271155
86	0x3eb8156b	0.3595384
87	0xbe36e557	-0.17860924
88	0x3ef17751	0.47161344
89	0xbe6028e2	-0.21890596
90	0xbee41950	-0.44550562
91	0x3d133436	0.035938464
92	0xbe10d10b	-0.14142244
93	0x3f1a6ac6	0.60319173
94	0x3d8d18c2	0.06889488
95	0x3e9e2d95	0.3089415
96	0x3f0c4768	0.5479646
97	0xbc7a7c02	-0.015288355
98	0x3ef541f5	0.47901884
99	0x3dfbac7c	0.12288758
100	0xbd999e1e	-0.075008616
101	0xbdd1e560	-0.10248828
102	0x3e03665f	0.1283202
103	0xbeaa4604	-0.33256543
104	0x3d841747	0.06449752
105	0xbe8b8a39	-0.27253893
106	0x3ea16625	0.31523243
107	0xbea0765e	-0.31340307
108	0x3e48f41a	0.19624367
109	0x3eda4b4d	0.42635575
110	0xbda4459c	-0.080210894
111	0xbcfdde3d	-0.03098976
112	0x3e84452e	0.2583403
113	0x3f02e4cd	0.5113037
114	0xbebaabfa	-0.36459333
115	0x3d53ddd9	0.051725242
116	0xbe1590e3	-0.14606051
117	0xbe858147	-0.26075193
118	0xbf089cdf	-0.53364366
119	0x3efb86bd	0.49126235
120	0x3eb041d6	0.3442523
121	0x3d4b9973	0.049706887
122	0xbdda5b11	-0.10661901
123	0x3e7e520a	0.24835983
124	0xbee07daa	-0.43845874
125	0xbe7fff15	-0.2499965
126	0x3e9c18df	0.30487725
127	0xbec784e6	-0.3896858
128	0xbe079a32	-0.13242415
129	0x3e93d60a	0.28874236
130	0xbe91850e	-0.28421825
131	0xbe16ede0	-0.1473918
132	0xbe789731	-0.24276425
133	0xbe950340	-0.29104042
134	0xbe9a88b7	-0.3018243
135	0xbe56a0dc	-0.209598
136	0x3d598a84	0.053110614
137	0x3e809f41	0.251215
138	0xbd63889a	-0.055550195
139	0x3f4b3394	0.79375577
140	0x3ce650cc	0.028114699
141	0xbf17cbb7	-0.5929522
142	0xbdbd6e8b	-0.092496
143	0xbe2dbba5	-0.16966112
144	0x3df9170a	0.121625975
145	0x3e3ce94e	0.18448374
146	0x3f31a87e	0.69397724
147	0x3eaf0275	0.34181562
148	0xbe187e02	-0.14891818
149	0x3f14f967	0.5819306
150	0x3e3dfbc6	0.18553075
151	0xbe36b8eb	-0.17843978
152	0x3be4224c	0.0069620963
153	0x3ead04de	0.33792776
154	0xbe83cab3	-0.25740585
155	0xbec801f0	-0.39063978
156	0xbe4e7111	-0.20160319
157	0xbd43ae7b	-0.04777382
158	0x3e97ac00	0.29623413
159	0xbddaad04	-0.10677531
160	0x3f00391f	0.5008716
161	0xbc33c945	-0.010973279
162	0xbd9db65a	-0.077007964
163	0x3e898f23	0.26867017
164	0xbb03553d	-0.002003982
165	0x3e265be0	0.16245985
166	0xbe384e3a	-0.17998591
167	0x3d7be0af	0.06149357
168	0x3f0ff8d9	0.56239086
169	0x3ee25b66	0.44210356
170	0xbf0f4613	-0.559663
171	0xbe7fe583	-0.24989896
172	0x3e61ac32	0.22038344
173	0xbe029634	-0.1275261
174	0x3e10a905	0.14126976
175	0xbea29f67	-0.3176224
176	0xbd523a0d	-0.051324893
177	0xbe51d9a3	-0.20493178
178	0x3e42f4fb	0.19038765
179	0x3d519b33	0.0511734
180	0x3e738dc4	0.23784548
181	0x3ea3332f	0.31874987
182	0x3c50ca7b	0.012743588
183	0x3e9e10d1	0.30872205
184	0xbeb2097a	-0.34772855
185	0xbf09b692	-0.53794205
186	0xbea0f18e	-0.31434292
187	0xbda5ba72	-0.08092202
188	0xbe68fcc3	-0.22752671
189	0x3e6f51ff	0.23371123
190	0x3f0ae7ac	0.54259753
191	0x3e565e87	0.20934497
192	0x3e7fa934	0.2496689
193	0x3e706769	0.23476948
194	0x3e4c50c4	0.19952685
195	0xbe5edb06	-0.21763238
196	0x3e7cfeb8	0.24706542
197	0x3e180284	0.1484471
198	0xbebcdb14	-0.36885893
199	0xbf3bb0a7	-0.73316425
200	0xbf186a54	-0.59537244
201	0x3f11b45b	0.56915826
202	0x3f1051a5	0.5637458
203	0x3ed2fc82	0.41208273
204	0xbccbbbf0	-0.024869889
205	0xbe9442e3	-0.2895728
206	0x3e92963c	0.28630245
207	0xbde305eb	-0.11085113
208	0x3e7dd440	0.24787998
209	0xbf118879	-0.56848866
210	0x3ed7a698	0.42119288
211	0x3e35245e	0.17689654
212	0x3e583fc7	0.21118079
213	0xbe896f64	-0.26842797
214	0x3dd84ca8	0.10561496
215	0x3e1f2928	0.15543044
216	0xbd985426	-0.07437925
217	0xbe311471	-0.17292954
218	0x3e03e95d	0.1288199
219	0x3ec649f2	0.3872829
220	0x3ddde3e7	0.108344845
221	0x3e400c1c	0.1875462
222	0xbe80cac6	-0.25154704
223	0x3e6a3625	0.22872217
224	0x3e417efa	0.18896094
225	0xbc2e132b	-0.010624687
226	0x3e2bc5ae	0.16774628
227	0xbed6d5bd	-0.41959944
228	0x3c1c9f64	0.009559486
229	0xbe8f9bbc	-0.28048503
230	0xbe6805e8	-0.22658503
231	0x3dea045b	0.11426612
232	0xbeb3512f	-0.35022876
233	0xbe30e4dd	-0.17274804
234	0xbda6369b	-0.08115884
235	0xbe6efd9b	-0.2333893
236	0xbee2431b	-0.44191822
237	0xbe68cfa8	-0.22735465
238	0x3ec93484	0.3929788
239	0x3ea83cdd	0.32858935
240	0x3ea0fc98	0.31442714
241	0xbba41b1e	-0.0050081154
242	0xbd90f0c6	-0.07077174
243	0xbf12ae21	-0.5729695
244	0x3e1d200c	0.15344256
245	0x3ea15d24	0.31516373
246	0xbedd6ae4	-0.43245614
247	0x3dbbce4e	0.09170209
248	0xbef88eb2	-0.48546368
249	0xbe8df68e	-0.2772717
250	0x3d3363c4	0.043796316
251	0xbe666cd1	-0.22502448
252	0xbeae5838	-0.3405168
253	0x3cc8fec3	0.024535542
254	0xbdcae5da	-0.09907122
255	0x3e5d7169	0.21625294
